…
model.compile( optimizer=keras.optimizers.Adam(learning_rate=0.0005), loss=keras.losses.SparseCategoricalCrossentropy(from_logits=True), metrics=[&#39;accuracy&#39;], ) return resnet_model model = build_resnet_model() keras.utils.plot_model(model, show_shapes=True, rankdir=&#39;TB&#39;, show_layer_activations=True, expand_nested=True) . . Model: &#34;resnet50&#34; _________________________________________________________________ Layer (type) Output Shape Param # ================================================================= input (InputLayer) [(None, 224, 224, 3)] 0 sequential (Sequential) (None, 224, 224, 3) 0 conv2d_28 (Conv2D) (None, 112, 112, 64) 9472 max_pooling2d (MaxPooling2D (None, 56, 56, 64) 0 ) cfg0_block (Functional) (None, 56, 56, 256) 148480 cfg1_block (Functional) (None, 28, 28, 512) 665600 cfg2_block (Functional) (None, 14, 14, 1024) 2641920 cfg3_block (Functional) (None, 7, 7, 2048) 10526720 classifier (Functional) (None, 120) 3932280 ================================================================= Total params: 17,924,472 Trainable params: 17,893,752 Non-trainable params: 30,720 _________________________________________________________________ None . Defining Callbacks . In model.fit(), we can define callbacks for the model that are invoked during training at pre-determined intervals. We define a Model Checkpoint callback th
…
